telco_churn_project/best_churn_model.pth (torch, 19291 bytes, 9 tensors)

network.0.weight f4 [64, 19]
0	0x3d31e342	0.04342962
1	0xbbd0f715	-0.0063771107
2	0x3e18e432	0.149308
3	0x3e1f8fa8	0.15582144
4	0x3e737ef4	0.23778898
5	0xbe39f41c	-0.18159527
6	0xbd858e96	-0.06521337
7	0x3e94bab8	0.29048705
8	0x3e4ed788	0.20199406
9	0x3cf861ce	0.030320074
10	0xbdd99b7c	-0.106253594
11	0x3e6eb3f1	0.2331083
12	0xbe6f0421	-0.23341419
13	0xbda31dc7	-0.07964664
14	0x3cce8d81	0.025213959
15	0x3e7785ee	0.24172184
16	0xbd825a8a	-0.06364925
17	0xbe4b6d75	-0.19865973
18	0x3da14f4b	0.07876452
19	0x3e0d719b	0.13812868
20	0xbd94b76d	-0.07261548
21	0x3db645ef	0.089000575
22	0xbcb5091c	-0.02209907
23	0x3e4366e6	0.19082221
24	0x3e38f98b	0.18063943
25	0xbe1269f4	-0.1429823
26	0xbdf7531b	-0.12076398
27	0xbd4471c8	-0.047960073
28	0x3b4c9b1e	0.0031220387
29	0xbde25cc9	-0.110528536
30	0x3e0f91d9	0.1402048
31	0x3d8f39e5	0.069934644
32	0x3d5f9b9b	0.054591756
33	0x3e150172	0.14551333
34	0xbd761db4	-0.06008692
35	0x3e1d36d9	0.15352954
36	0xbe1f5c96	-0.15562662
37	0xbdf8ad70	-0.121424556
38	0x3d74d20a	0.05977062
39	0x3dfd1b1c	0.12358686
40	0xbe041e7e	-0.12902257
41	0x3e3aed5a	0.18254605
42	0x3db2f441	0.08737994
43	0xbe0b6dab	-0.13616054
44	0xbdaea07a	-0.08526702
45	0x3e3ce64f	0.18447231
46	0xbe4bdf44	-0.19909388
47	0x3e01bece	0.12670442
48	0x3c6c3c4d	0.014418674
49	0x3dc1f195	0.09469906
50	0x3e14cfcb	0.14532392
51	0x3e0e7f37	0.13915716
52	0xbe24bd04	-0.16087729
53	0xbe08a634	-0.13344651
54	0xbe18f342	-0.14936545
55	0x3d5b41c1	0.053529505
56	0x3e7b09c5	0.24515446
57	0xbe5223fd	-0.20521541
58	0xbe02774d	-0.12740822
59	0xbd4fab08	-0.050700217
60	0x3e3e1616	0.18563113
61	0x3e2f341d	0.17109723
62	0xbe416dcc	-0.1888954
63	0x3c2c1f2e	0.010505481
64	0x3c4556c6	0.012044614
65	0xbb328ac8	-0.0027243365
66	0xbde3faf1	-0.11131848
67	0xbd3fb386	-0.046802066
68	0xbd09a132	-0.033600993
69	0x3d3525f7	0.04422566
70	0xbe18f2b3	-0.14936332
71	0x3e8f201c	0.27954185
72	0xbe0a64b5	-0.13514979
73	0xbe561b7d	-0.20908923
74	0xbd1c3959	-0.03814063
75	0x3d070649	0.03296498
76	0xbcd451d6	-0.025917929
77	0x3db0700c	0.08615121
78	0xbdc05a66	-0.09392242
79	0x3d55cb53	0.05219586
80	0x3e6c4100	0.2307167
81	0x3cb3c6ff	0.021945475
82	0xbe4b74ba	-0.19868746
83	0x3e6c4757	0.23074089
84	0xbe72870c	-0.23684329
85	0xbc66759b	-0.014066125
86	0x3e131730	0.14364314
87	0xbc2e77a1	-0.010648639
88	0x3c60c091	0.013717786
89	0x3c07e7c6	0.008295005
90	0x3e01511f	0.12628601
91	0xbb10eabb	-0.0022112567
92	0xbe68e9ca	-0.22745433
93	0xbddcfcef	-0.10790431
94	0xbdf83f68	-0.12121469
95	0xbd409208	-0.047014266
96	0x3dc0c4fc	0.09412572
97	0x3dae3304	0.08505824
98	0x3d8646e3	0.06556489
99	0x3d583817	0.052787866
100	0x3dac5fcd	0.0841671
101	0x3dd58aa8	0.10426837
102	0xbe4736be	-0.19454476
103	0xbd9dc060	-0.07702708
104	0x3dc6d500	0.09708595
105	0x3bb11203	0.0054037585
106	0xbc19a9e0	-0.00937888
107	0x3e50f700	0.20406723
108	0xbc1024f6	-0.008797875
109	0x3e83ac1f	0.25717255
110	0x3d864a48	0.06557137
111	0xbe2b9186	-0.16754732
112	0xbe64b200	-0.22333527
113	0xbe47f7f3	-0.19528179
114	0x3c2a3c60	0.010390371
115	0xbd471587	-0.048604514
116	0x3d3067a3	0.043067586
117	0x3e86ac0a	0.2630313
118	0xbbb92ecd	-0.005651331
119	0x3cc972ec	0.024590932
120	0xbcf57b25	-0.029965946
121	0x3b4552d3	0.0030109182
122	0x3e4ebd79	0.20189466
123	0x3e34aecc	0.17644805
124	0x3d179447	0.037006643
125	0xbd10c837	-0.03534719
126	0x3e84a9ce	0.259108
127	0x3e11338d	0.14179821
128	0x3e3a6508	0.18202603
129	0x3dd8b6d5	0.105817474
130	0x3e0244bc	0.12721533
131	0xbe891d4b	-0.2678016
132	0xbe074086	-0.13208207
133	0x3df2f769	0.11863596
134	0xbe024045	-0.1271983
135	0xbdd17a58	-0.10228413
136	0xbe04c62b	-0.1296622
137	0x3da6fce6	0.08153705
138	0x3c4b6bc5	0.012415831
139	0x3e325c43	0.17418008
140	0x3e23a300	0.15980148
141	0x3e365aa3	0.17808013
142	0x3d839bdc	0.06426212
143	0x3e0f85bc	0.1401586
144	0xbd0c7799	-0.034293745
145	0x3db6d5ea	0.089275196
146	0xbe6061d4	-0.21912318
147	0x3e8d86d0	0.27641916
148	0xbe3bce02	-0.18340304
149	0x3d61a44a	0.05508832
150	0x3c7b773f	0.015348255
151	0xbe8c6e80	-0.27428055
152	0xbd8eec12	-0.069786206
153	0xbaa2ffc4	-0.0012435843
154	0x3de89ae2	0.113576666
155	0xbdbf7493	-0.09348407
156	0x3dce6bd2	0.10079159
157	0x3e3a44b9	0.18190278
158	0x3dd5c498	0.10437888
159	0xbdf5cdf3	-0.12002172
160	0x3db1be88	0.08678919
161	0x3d3f9caa	0.046780266
162	0xbd6d139f	-0.05788004
163	0x3d0c24b9	0.03421471
164	0xbe078113	-0.13232832
165	0xbe487ad7	-0.1957811
166	0x3eb4f10f	0.35340163
167	0xbdb2e963	-0.08735921
168	0x3e8187df	0.25298974
169	0xbe8b90ac	-0.27258813
170	0x3d1b1465	0.037861247
171	0x3de3be57	0.11120289
172	0x3d46785f	0.04845464
173	0x3d807b17	0.062734775
174	0x3d104001	0.03521729
175	0x3ded9b4e	0.11601888
176	0x3d93fef8	0.07226366
177	0x3e08d277	0.13361536
178	0x3e41e63a	0.1893548
179	0x3e130c5e	0.14360186
180	0x3bd92b36	0.0066274656
181	0xbe0fc835	-0.14041217
182	0x3e0d79fc	0.13816065
183	0xbe0ff1cc	-0.14057082
184	0xbc3f01ee	-0.011658175
185	0x3e4f5aba	0.20249453
186	0xbe1205b0	-0.14259982
187	0x3e608e09	0.21929182
188	0xbe1b0f46	-0.15142545
189	0xbda49684	-0.08036521
190	0x3d936877	0.071976595
191	0x3d3dcf9f	0.04634058
192	0xbe37a54a	-0.17934147
193	0xbde34e71	-0.11098946
194	0xbeb25992	-0.34833962
195	0xbe09f142	-0.13470939
196	0xbe29db42	-0.16587546
197	0xbdf171cd	-0.11789284
198	0x3e191bb3	0.14951973
199	0x3ddbf0f5	0.10739318
200	0xbe21b92a	-0.1579329
201	0x3e1574e3	0.1459537
202	0xbe084700	-0.13308334
203	0xbdd46218	-0.103702724
204	0xbe7e967a	-0.2486209
205	0x3e096f55	0.13421376
206	0xbdf22686	-0.11823754
207	0x3e66462a	0.22487703
208	0xbec155c7	-0.37760755
209	0xbdaf9951	-0.08574165
210	0xbdc6b8ad	-0.09703193
211	0x3e2950f0	0.16534781
212	0x3d08cff4	0.033401445
213	0x3d6bc1db	0.05755792
214	0x3e3a91eb	0.18219726
215	0x3d9cef0a	0.076627806
216	0xbe87a4ff	-0.2649307
217	0xbd83f8ab	-0.06443914
218	0x3db1cfab	0.08682188
219	0xbd769cc3	-0.060208093
220	0x3c938f10	0.018012553
221	0x3df0f974	0.117663294
222	0xbe2eb35b	-0.17060606
223	0x3e4c9688	0.19979298
224	0x3e2fc0d9	0.1716341
225	0xbe61def5	-0.22057708
226	0xbe6e6524	-0.2328077
227	0xbd9b7ec6	-0.075925395
228	0xbdfbdb78	-0.1229772
229	0xbdf3c6c7	-0.11903148
230	0xbd9beca5	-0.07613496
231	0xbd5dddf7	-0.05416676
232	0x3de3cf04	0.111234695
233	0x3d2e0a9d	0.04249059
234	0xbdb62065	-0.088928975
235	0x3d18b3c1	0.0372808
236	0xbdaac597	-0.083384685
237	0x3e3362fb	0.17518227
238	0x3d530c5c	0.05152546
239	0xbd3d7786	-0.046256565
240	0xbe208944	-0.15677363
241	0x3d31daae	0.04342144
242	0x3e5ca0e1	0.21545745
243	0xbe2486de	-0.16067073
244	0x3e9fa4a4	0.31180298
245	0xbe23f6e9	-0.16012157
246	0x3e3de551	0.18544509
247	0x3e40e76b	0.18838279
248	0x3db21b49	0.086966105
249	0xbdf26ae7	-0.11836796
250	0x3e3c319d	0.18378301
251	0x3e1a4041	0.15063573
252	0x3e56da9e	0.20981833
253	0xbdbdae45	-0.09261755
254	0xbd9b7246	-0.07590155
255	0x3daac673	0.083386324

network.0.bias f4 [64]
0	0xbe2f4144	-0.1711474
1	0x3dd76827	0.10517912
2	0x3e393833	0.18087845
3	0xbcb1f58d	-0.021723533
4	0x3e5b7cee	0.21434376
5	0xbe5f3211	-0.21796443
6	0x3e0f8e2a	0.14019075
7	0x3e52c6da	0.20583668
8	0x3d81658b	0.06318196
9	0xbc32f7e0	-0.010923356
10	0x3e2d9042	0.16949561
11	0x3e08900e	0.13336203
12	0xbe525af5	-0.2054251
13	0x3e0dc02f	0.13842843
14	0xbd61b33d	-0.055102576
15	0xbe38b7a4	-0.18038803
16	0x3e0a5a15	0.13510926
17	0x3df9d3e2	0.121986166
18	0x3e3e434c	0.18580359
19	0x3d5f0bc9	0.0544546
20	0xbe413338	-0.18867195
21	0xbe0db01c	-0.13836712
22	0x3df81c2c	0.12114748
23	0x3c8df512	0.017328773
24	0xbd879079	-0.06619353
25	0xbe29df7f	-0.16589163
26	0xbdd45b3c	-0.10368964
27	0xbdd55224	-0.10416058
28	0x3e11168e	0.1416876
29	0xbdd751f4	-0.10513678
30	0xbe59e6a4	-0.21279389
31	0xbdb60720	-0.08888078
32	0xbdf1fbcf	-0.11815607
33	0x3d0e56e9	0.034750853
34	0xbe12764f	-0.14302944
35	0xbe67f1cc	-0.22650832
36	0xbe4bb9ca	-0.19895092
37	0xbe29438f	-0.16529678
38	0xbdbeff51	-0.093260415
39	0xbe0eb7a5	-0.13937242
40	0x3d041213	0.0322438
41	0x3e18f67b	0.14937775
42	0xbca62cf8	-0.020285115
43	0x3ca81647	0.020518435
44	0xba264ea6	-0.0006344117
45	0x3e5bf61d	0.21480604
46	0x3cdc02ae	0.026856747
47	0xbdc28440	-0.09497881
48	0xbc318636	-0.010835221
49	0xbe353d3c	-0.1769914
50	0x3df547d1	0.119765885
51	0x3e11779f	0.14205788
52	0xbbd0b580	-0.0063692927
53	0x3deaaafe	0.114583954
54	0x3e493f09	0.19652952
55	0x3e20af67	0.1569191
56	0x3e53d449	0.20686449
57	0x3d66b7e2	0.056327708
58	0x3e5fd1cf	0.2185738
59	0xbc2e6f2c	-0.010646623
60	0x3e02a7e8	0.12759364
61	0xbe4be4a5	-0.1991144
62	0x3e1aabaa	0.15104547
63	0xbe37cfb6	-0.17950329

network.1.weight f4 [64]
0	0x3f873564	1.0563169
1	0x3f869ba8	1.0516253
2	0x3f6d5775	0.92711574
3	0x3f8720cf	1.0556887
4	0x3f898899	1.0744811
5	0x3f908139	1.1289436
6	0x3f84b73f	1.0368422
7	0x3f8c0b9c	1.0941043
8	0x3f879cc0	1.0594711
9	0x3f86eaf4	1.0540452
10	0x3f7105b4	0.9414933
11	0x3f8d4c97	1.1038998
12	0x3f86fbd9	1.0545608
13	0x3f8247e8	1.0178194
14	0x3f6bc8fa	0.9210354
15	0x3f846ab7	1.0345067
16	0x3f84a01f	1.0361365
17	0x3f7d1c95	0.9887174
18	0x3f6a01c7	0.9140896
19	0x3f6be9fd	0.9215391
20	0x3f887544	1.0660787
21	0x3f7bb9ea	0.9833056
22	0x3f7a2b83	0.97722644
23	0x3f7a4a22	0.9776937
24	0x3f8821dc	1.0635333
25	0x3f87d40b	1.0611585
26	0x3f84264b	1.0324186
27	0x3f86385b	1.0485948
28	0x3f84f242	1.0386431
29	0x3f875f00	1.0575867
30	0x3f7de1df	0.99172777
31	0x3f78584f	0.9700975
32	0x3f80c060	1.0058708
33	0x3f80ace3	1.0052761
34	0x3f7c5067	0.98560184
35	0x3f7c518a	0.9856192
36	0x3f7d14de	0.98859966
37	0x3f76f2c6	0.9646419
38	0x3f87b228	1.0601244
39	0x3f81a89c	1.012958
40	0x3f88e971	1.0696241
41	0x3f811969	1.008588
42	0x3f658344	0.8965342
43	0x3f745ef2	0.95457375
44	0x3f756b44	0.958668
45	0x3f848c90	1.0355396
46	0x3f87cc7d	1.060928
47	0x3f8ade17	1.0849026
48	0x3f831814	1.0241723
49	0x3f80e86d	1.0070931
50	0x3f7df262	0.9919797
51	0x3f8593f4	1.0435777
52	0x3f8d6bf6	1.1048572
53	0x3f88caf5	1.0686938
54	0x3f831487	1.024064
55	0x3f8537f8	1.0407705
56	0x3f81c775	1.0138994
57	0x3f7c9ba6	0.98675
58	0x3f91f00c	1.1401381
59	0x3f6e36fb	0.93052644
60	0x3f746a42	0.95474637
61	0x3f7f1c0b	0.99652165
62	0x3f82e8c2	1.0227282
63	0x3f85127f	1.039627

network.1.bias f4 [64]
0	0xbd99d143	-0.07510617
1	0xbcccf840	-0.025020719
2	0x3b8231b4	0.00397321
3	0x3dc52f13	0.09628119
4	0x3d6510cf	0.055924233
5	0x3d137fa2	0.036010392
6	0x3d73d529	0.059529457
7	0x3cc99dfe	0.02461147
8	0x3e05e7f0	0.13076758
9	0x3cb78abb	0.022405019
10	0xbd1957f1	-0.037437383
11	0xbd11f766	-0.03563633
12	0x3cc4c4dd	0.024019653
13	0x3d694941	0.056954626
14	0xbdf33656	-0.11875598
15	0xbd1385a8	-0.036016136
16	0x3c22e2e1	0.009941787
17	0xbc11062a	-0.008851567
18	0xbde0c422	-0.10974909
19	0xbda88329	-0.08228142
20	0x3d1970d8	0.03746113
21	0xbc92eb4f	-0.01793447
22	0xbdc85a84	-0.097828895
23	0xbdd66b80	-0.10469723
24	0xbd5b31a9	-0.053514156
25	0x3d0044b6	0.031315528
26	0x3d8b1e92	0.0679294
27	0x3d0709eb	0.032968443
28	0xbc5509d1	-0.013002829
29	0x3d387a49	0.045038495
30	0xbd3f5869	-0.046715174
31	0xbca6772c	-0.020320497
32	0x3d4284fc	0.047490105
33	0x3d4f7a27	0.050653603
34	0xbdb84601	-0.08997727
35	0xbd76bfa6	-0.060241364
36	0x3d0a2d67	0.033734705
37	0xbc9272f7	-0.017877085
38	0xbd0540ad	-0.032532383
39	0x3c784e06	0.015155321
40	0x3c5ad6e0	0.013356894
41	0xbdb3b65e	-0.08775018
42	0xbd81fe01	-0.063472755
43	0xbdd3f00d	-0.103485204
44	0xbde11375	-0.10990039
45	0x3c27a370	0.010231838
46	0x3d71d3b6	0.059039794
47	0x3d2e7210	0.042589247
48	0xbd437ce1	-0.047726516
49	0xbd154031	-0.03643817
50	0xbcf717af	-0.03016266
51	0x3c8dda7a	0.017316092
52	0x3df86dac	0.12130293
53	0x3d0efbfb	0.034908276
54	0x3dbed6e9	0.093183346
55	0x3c16a2b4	0.009194065
56	0x3d6e5cf5	0.05819412
57	0xbdc8a513	-0.097971104
58	0x3cb13fd8	0.021636888
59	0xbdc0c94c	-0.09413394
60	0xbd07c613	-0.033147883
61	0x3ce7ec65	0.028310964
62	0xbc84df8a	-0.016219873
63	0xbdc6d994	-0.097094685

network.1.running_mean f4 [64]
0	0xbe30e348	-0.17274201
1	0x3de7c9a7	0.11317759
2	0x3e4ba8a6	0.19888553
3	0xbc8ce9cc	-0.017201327
4	0x3e5e0f5b	0.21685545
5	0xbe5ee4a8	-0.21766913
6	0x3e0b900d	0.1362917
7	0x3e436730	0.19082332
8	0x3d6afc64	0.057369605
9	0xbb1b842a	-0.00237299
10	0x3e0e511a	0.13898125
11	0x3e0a54ea	0.13508955
12	0xbe4e8ced	-0.20170946
13	0x3e1e47bd	0.15457053
14	0xbd099df7	-0.033597913
15	0xbe477803	-0.19479375
16	0x3e0d0b27	0.13773786
17	0x3e05b920	0.13058901
18	0x3e4c8c34	0.19975358
19	0x3d76bc4b	0.060238164
20	0xbe3a204c	-0.18176383
21	0xbe167c79	-0.1469592
22	0x3dde5b56	0.10857265
23	0x3c509190	0.012730017
24	0xbd96cda0	-0.073634386
25	0xbe18ef16	-0.14934954
26	0xbde329cd	-0.11091957
27	0xbdc4287a	-0.09578033
28	0x3e032736	0.12807927
29	0xbd9cc75e	-0.07655214
30	0xbe6768e4	-0.22598606
31	0xbd9e983e	-0.07743882
32	0xbdf0517a	-0.117342904
33	0x3d23b988	0.03997186
34	0xbe10e7fa	-0.14150992
35	0xbe6ee5c4	-0.23329836
36	0xbe403c3f	-0.18772982
37	0xbe1fb76b	-0.15597312
38	0xbdadfc85	-0.0849543
39	0xbe15a802	-0.14614871
40	0x3cc80615	0.024416963
41	0x3e1c5f4d	0.1527073
42	0xbcb7c6c8	-0.022433653
43	0xbb145763	-0.0022635094
44	0xbbe030a6	-0.006841737
45	0x3e4297e4	0.19003254
46	0x3cd89986	0.026440393
47	0xbda93e2f	-0.08263814
48	0x3bf64982	0.007516087
49	0xbe177ffe	-0.14794919
50	0x3e0af2ad	0.13569136
51	0x3e13fda1	0.1445222
52	0xbca1166e	-0.019664016
53	0x3dd427d2	0.103591576
54	0x3e33d74e	0.17562601
55	0x3e21e494	0.15809852
56	0x3e55bc08	0.2087251
57	0x3d2ba3aa	0.04190413
58	0x3e6015ad	0.21883269
59	0xbc80fe06	-0.015746128
60	0x3dfee139	0.124453016
61	0xbe558692	-0.20852116
62	0x3e2f4314	0.17115432
63	0xbe4356d1	-0.19076087

network.1.running_var f4 [64]
0	0x3f0f008c	0.5586021
1	0x3e5ab799	0.213591
2	0x3eb7606f	0.3581576
3	0x3edc01d6	0.4297015
4	0x3ea33c2b	0.31881842
5	0x3e5d9a76	0.21640953
6	0x3eeac78d	0.4585537
7	0x3eb76340	0.3581791
8	0x3edac53b	0.427286
9	0x3ec51a74	0.38496745
10	0x3f92cf6e	1.1469553
11	0x3e90bbd1	0.28268293
12	0x3eb404b3	0.35159835
13	0x3e9711bb	0.29505715
14	0x3ebcc0ab	0.36865744
15	0x3ec444e6	0.38333815
16	0x3ea5cafe	0.32381433
17	0x3e97fbf2	0.29684407
18	0x3f6ce1f9	0.92532307
19	0x3ebfd1ff	0.37464902
20	0x3e50feeb	0.20409743
21	0x3efaa25a	0.4895199
22	0x3f28abcd	0.6588715
23	0x3e8ab00f	0.27087447
24	0x3f2c1b87	0.67229503
25	0x3ec741c4	0.38917363
26	0x3ee988df	0.45612237
27	0x3ea21e51	0.31663755
28	0x3ec26400	0.3796692
29	0x3f149055	0.58032733
30	0x3eb75fa2	0.3581515
31	0x3e83c4c9	0.25736073
32	0x3eb0bf12	0.34520775
33	0x3edfb237	0.43690655
34	0x3ed87f7b	0.4228476
35	0x3e564ae0	0.20927
36	0x3e98b731	0.29827264
37	0x3f3b68fa	0.73207057
38	0x3eaa92f5	0.33315244
39	0x3e8a367f	0.26994702
40	0x3e8d431d	0.27590266
41	0x3f7bd018	0.983644
42	0x3e6b090e	0.22952673
43	0x3eea44f1	0.45755723
44	0x3ea7dacd	0.3278412
45	0x3eebc845	0.4605123
46	0x3e7e7d06	0.2485238
47	0x3e5c3e7d	0.21508212
48	0x3ec963bd	0.39333907
49	0x3e6f800f	0.23388694
50	0x3e736fc2	0.23773101
51	0x3eb3b91f	0.35102174
52	0x3ed7a90f	0.4212117
53	0x3e9721c5	0.29517952
54	0x3e881651	0.26579526
55	0x3e95db4a	0.29268867
56	0x3e4d922e	0.20075294
57	0x3f06a156	0.5258993
58	0x3e72c4d7	0.23707901
59	0x3ea5714c	0.32313
60	0x3f1a407c	0.60254645
61	0x3eccfd20	0.4003687
62	0x3eb0bf64	0.3452102
63	0x3f0c14c2	0.54719174

network.4.weight f4 [32, 64]
0	0x3dbb721a	0.091526225
1	0x3dc19ae1	0.09453369
2	0xbcaa05aa	-0.020754654
3	0x3e33c335	0.17554934
4	0x3e38b3f0	0.1803739
5	0x3e4190b4	0.18902856
6	0x3db026d0	0.08601153
7	0x3e3c86ea	0.1841084
8	0x3b02bee7	0.0019950212
9	0xbd64f0fd	-0.055893887
10	0xbdfaae5b	-0.12240287
11	0x3e5446a0	0.20730066
12	0x3c29bb6f	0.010359629
13	0x3e0088a4	0.12552124
14	0xbb86fe1e	-0.0041196486
15	0x3de10544	0.109873325
16	0x3de0436c	0.1095036
17	0x3d34b518	0.044118017
18	0x3d421d8d	0.047391463
19	0xbc616623	-0.013757261
20	0xbd97403d	-0.07385299
21	0x3cc61670	0.02418062
22	0xbd09fbeb	-0.033687513
23	0xbc157663	-0.009122464
24	0x3d4a63a4	0.04941143
25	0x3e15f709	0.14645018
26	0xbac93591	-0.0015351047
27	0x3c859ca9	0.016310053
28	0x3c9f6e86	0.019461881
29	0x3e29bc6f	0.16575788
30	0x3e0af78e	0.13570997
31	0x3cbd7f49	0.023131983
32	0x3d389f5a	0.045073844
33	0x3e231ba7	0.15928517
34	0xbd3c68b6	-0.045998298
35	0xbd09da9d	-0.03365575
36	0xbd545cdb	-0.051846366
37	0xbd5df1fc	-0.054185852
38	0x3e02b061	0.12762596
39	0xbe00f6b9	-0.12594117
40	0x3e26a9e1	0.16275741
41	0xbd4439af	-0.047906574
42	0x3b776410	0.003774885
43	0xbd22bd1d	-0.039731134
44	0x3cfc2020	0.030777037
45	0xbc243983	-0.0100234775
46	0xbc659b4a	-0.014014075
47	0xbdbe4605	-0.09290699
48	0x3b853d0a	0.0040661143
49	0xbc43b3fc	-0.011944767
50	0x3b4a48b2	0.0030866084
51	0x3abe2108	0.0014505694
52	0x3e42bf52	0.19018295
53	0x3d64fc3c	0.055904612
54	0xbd1223f4	-0.03567882
55	0x3c12de9f	0.00896421
56	0x3daaffb4	0.08349553
57	0xbd3c65ce	-0.045995526
58	0x3bf031b6	0.0073301448
59	0x3d12c6b5	0.035834033
60	0x3d93ac57	0.072106056
61	0x3d83927d	0.06424425
62	0xbdd330ea	-0.10312064
63	0xbde8c106	-0.11364941
64	0x3e01d02c	0.12677068
65	0x3d29fccc	0.04150085
66	0xbdca6676	-0.09882824
67	0x3c8c837b	0.017152539
68	0xbd0ebf06	-0.034850143
69	0x3e2af944	0.1669665
70	0x3db10339	0.08643193
71	0x3d0bcff7	0.034133878
72	0x3e0ecc79	0.13945188
73	0x3e21c26a	0.1579682
74	0xbda214ae	-0.079141006
75	0x3e46d073	0.19415455
76	0xbd3752ff	-0.044756886
77	0x3d7f364b	0.062307637
78	0xbd43d128	-0.04780689
79	0x3dcd5378	0.10025686
80	0xbc80be99	-0.015715884
81	0x3dde6a3b	0.108601056
82	0xbdad4864	-0.08461073
83	0xba8f0943	-0.0010912794
84	0x3e0227df	0.12710522
85	0x3b8f43c7	0.0043720934
86	0xbe0a3f39	-0.1350068
87	0x3d206c8d	0.039166022
88	0xbc4b39c5	-0.01240391
89	0x3e3e3271	0.1857393
90	0xbd62cdbb	-0.05537198
91	0x3d06589a	0.03279934
92	0x3da97dc6	0.082759425
93	0x3e0a35dd	0.1349711
94	0x3d670978	0.056405514
95	0xbbca102e	-0.0061664796
96	0x3c533a09	0.012892255
97	0xbd477580	-0.04869604
98	0xbc70be52	-0.014693813
99	0x3ce50c9a	0.02796011
100	0xbcbe754c	-0.02324929
101	0xbde5998b	-0.112109266
102	0x3dea1a2a	0.11430772
103	0x3c995b5b	0.01872032
104	0x3df5efe6	0.120086476
105	0xbbb42388	-0.0054973997
106	0x3ca21fc8	0.019790545
107	0x3d12b1fb	0.035814267
108	0x3dd639bb	0.1046023
109	0xbc2f1be1	-0.010687799
110	0x3da7e16d	0.081972934
111	0x3ca2fc92	0.019895826
112	0x3d62dcbf	0.0553863
113	0x3d4d1627	0.050069954
114	0xbdb6ca51	-0.089253075
115	0x3d78ce81	0.060743812
116	0xbcf90cc9	-0.030401604
117	0x3d83ceff	0.06435966
118	0xbc6c6d4a	-0.014430353
119	0xbcdab242	-0.026696328
120	0x3dbeba0a	0.09312828
121	0xbd9b8684	-0.07594016
122	0x3c107ae5	0.008818363
123	0xbd335fea	-0.043792643
124	0x3cbb0225	0.022828171
125	0xbce38cc6	-0.027777087
126	0x3dbb9ab4	0.09160367
127	0xbdf9aa0b	-0.12190636
128	0x3d1d13c3	0.038348924
129	0xbe23b2b2	-0.15986136
130	0x3d3eb5d3	0.04656012
131	0xbdd5e378	-0.10443777
132	0xbdb81ab2	-0.08989467
133	0xbe4caaaa	-0.19986978
134	0x3d9d8c42	0.07692768
135	0xbd888ce6	-0.06667499
136	0xbc89a431	-0.016801925
137	0xbdef0dbf	-0.11672544
138	0x3d557199	0.05211029
139	0xbdb8bf45	-0.09020857
140	0xbda76d32	-0.08175124
141	0xbdddf16f	-0.108370654
142	0xbdbad235	-0.09122125
143	0xbdc1ed8b	-0.09469136
144	0x3d1c5f93	0.038177084
145	0xbdb0f033	-0.08639564
146	0x3dbe0251	0.092777856
147	0xbcb21072	-0.021736357
148	0xbddbb5f4	-0.10728064
149	0xbc977e9f	-0.018492995
150	0x3d5af83a	0.053459384
151	0x3d655b31	0.05599517
152	0x3e03d7ab	0.1287524
153	0xbd15fad0	-0.036616147
154	0xbe65e0ef	-0.22449087
155	0xbd27e77c	-0.040992245
156	0xbdea1254	-0.11429277
157	0x3d93947d	0.07206056
158	0x3e339d77	0.17540537
159	0x3e1108f2	0.14163569
160	0xbd6f2673	-0.058386277
161	0xbd1780bb	-0.036988
162	0x3e00e205	0.1258622
163	0x3df934d1	0.12168277
164	0xbe04adde	-0.1295695
165	0xbd98894d	-0.07448063
166	0xbcc61787	-0.02418114
167	0xbd4a314f	-0.04936343
168	0x3acc41cc	0.0015583574
169	0xbd8839cd	-0.066516496
170	0xbd935c22	-0.07195307
171	0x3cb2b265	0.02181358
172	0x3d5e6cdc	0.054303035
173	0xbb79686f	-0.0038056632
174	0xbdb1c862	-0.08680798
175	0xbe192202	-0.14954379
176	0xbb9e740f	-0.0048356126
177	0xbe1083bf	-0.14112757
178	0x3d31fc5f	0.04345357
179	0x3d898b12	0.06715979
180	0x3c803028	0.015647963
181	0xbe50b848	-0.20382798
182	0xbe118a27	-0.14212857
183	0x3d00bc74	0.031429723
184	0x3cec47bd	0.028842801
185	0x3e00a63b	0.12563412
186	0xbe1fc1eb	-0.15601318
187	0x3d97dedf	0.07415556
188	0x3e01eced	0.12688036
189	0x3c4c8ff3	0.012485492
190	0xbce80440	-0.028322339
191	0x3dc4267b	0.09577652
192	0x3d17152b	0.03688542
193	0xbda19a02	-0.07890703
194	0x3b443028	0.002993593
195	0xbdf5712c	-0.119844764
196	0xbdfab640	-0.12241793
197	0xbd9bf034	-0.076141745
198	0xbdbb9ffd	-0.09161375
199	0xbd3889fd	-0.04505347
200	0xbdd3ab96	-0.10335462
201	0xbd9627a5	-0.0733178
202	0xbdbee24a	-0.09320505
203	0xbd9f5d30	-0.07781446
204	0xbdfb1b12	-0.122610226
205	0x3c612ee1	0.013744087
206	0x3c501e79	0.012702578
207	0xbe412570	-0.18861938
208	0xbd5283e5	-0.051395316
209	0x3cbcee6d	0.023062909
210	0xbca40ae4	-0.020024724
211	0x3c33bf22	0.010970863
212	0xbdfa2e28	-0.12215835
213	0xbdad06af	-0.084485404
214	0x3d4aec92	0.049542017
215	0x3da6a825	0.0813754
216	0x3e36a977	0.17838083
217	0xbdcad99d	-0.09904788
218	0x3ca82cbb	0.020529142
219	0x3cec2500	0.028826237
220	0x3cd6db3b	0.026227584
221	0xbe1abbf3	-0.1511076
222	0xbceed93c	-0.02915632
223	0x3dc72098	0.09723014
224	0xbd476168	-0.04867688
225	0xbcd6bb47	-0.026212348
226	0x3dc7c817	0.09754961
227	0xbc3543a6	-0.011063492
228	0x3d3aa487	0.04556706
229	0xbd50bcfc	-0.05096148
230	0xbdc9bc22	-0.098503366
231	0x3da49d04	0.08037761
232	0x3c7ec1d8	0.015549146
233	0x3d047cb9	0.032345507
234	0x3caf5c53	0.021406328
235	0x3dd9c6cf	0.10633623
236	0x3d7d1902	0.061791427
237	0xbe3009dc	-0.17191261
238	0x3cb073bc	0.021539561
239	0x3d37004b	0.044678014
240	0x3d72b40e	0.059253745
241	0xbddebd72	-0.108759776
242	0x3d917282	0.07101919
243	0x3e157ef8	0.14599216
244	0xbe261927	-0.16220532
245	0x3cd258d1	0.025677117
246	0xbe29e0dc	-0.16589683
247	0xbaf9ead6	-0.0019067179
248	0x3bbb438d	0.00571484
249	0xbd8c3259	-0.068455406
250	0x3c9e8cbf	0.019354222
251	0xbd477ba6	-0.048701905
252	0xbd2fe6b1	-0.042944614
253	0x3c03992d	0.008032125
254	0x3cc78705	0.024356375
255	0x3de9d629	0.11417801

network.4.bias f4 [32]
0	0x3da60ed5	0.08108298
1	0x3e0b8252	0.13623932
2	0xbd91bc1f	-0.071159594
3	0x3d43fa9e	0.04784643
4	0x3de5368a	0.11192043
5	0xbd195e22	-0.037443288
6	0x3d8669e0	0.06563163
7	0x3e0d66a9	0.13808693
8	0x3e0aacfb	0.1354255
9	0x3c4f2e72	0.012645351
10	0x3e160812	0.14651516
11	0x3da7f73e	0.082014546
12	0x3d497b90	0.049190104
13	0xbdbe5001	-0.09292603
14	0x3de821dc	0.11334583
15	0x3dc8e183	0.09808638
16	0x3dbfa692	0.09357943
17	0x3e170463	0.14747767
18	0x3db5dc4a	0.088799074
19	0x3c1299a4	0.008947764
20	0xbddf6400	-0.10907745
21	0x3e023f22	0.12719396
22	0xbd8503a4	-0.06494835
23	0x3c3057de	0.010763137
24	0x3b58920e	0.003304604
25	0x3a06e563	0.00051458756
26	0x3dbe9b77	0.09306996
27	0xbdb0bdb4	-0.08629933
28	0x3d822849	0.0635534
29	0x3d72c8d2	0.05927355
30	0xbcc0f36d	-0.023553574
31	0x3e1e214f	0.15442394

network.7.weight f4 [1, 32]
0	0xbdf10627	-0.117687516
1	0xbe260e9b	-0.16216509
2	0x3e054ad3	0.13016824
3	0x3cb62745	0.022235522
4	0xbda38473	-0.07984247
5	0xbe05c1b9	-0.1306218
6	0xbd82aeba	-0.06380983
7	0x3e7a2a49	0.24430193
8	0xbdc01d03	-0.093805335
9	0xbe19cbeb	-0.15019195
10	0xbe01d94d	-0.1268055
11	0xbd868592	-0.06568445
12	0xbdedef64	-0.11617926
13	0x3e6ce64d	0.23134728
14	0xbe0177fa	-0.12643424
15	0xbe184166	-0.14868698
16	0x3e010050	0.12597775
17	0xbe37193e	-0.17880723
18	0x3dcd64b9	0.10028977
19	0xbd58dbf2	-0.05294413
20	0xbd110c35	-0.035412032
21	0x3e4312d7	0.19050156
22	0xbd6a8231	-0.057253066
23	0xbe2dcb10	-0.16971993
24	0x3d521a67	0.05129471
25	0x3e35651e	0.17714354
26	0x3dceca12	0.100971356
27	0x3e57e92c	0.21085042
28	0x3e25d68c	0.16195124
29	0x3e48ee3f	0.19622134
30	0xbe26c5ae	-0.16286346
31	0x3e2f6c76	0.17131218
